…
\begin_inset Box ovalbox
position "t"
hor_pos "c"
has_inner_box 1
inner_pos "t"
use_parbox 0
use_makebox 0
width "100col%"
special "none"
height "1in"
height_special "totalheight"
thickness "0.4pt"
separation "3pt"
shadowsize "4pt"
framecolor "black"
backgroundcolor "none"
status collapsed

\begin_layout Plain Layout
Model: "sequential" ____________________________________________________________
_____
\end_layout

\begin_layout Plain Layout
Layer (type) Output Shape Param # ==============================================
===================
\end_layout

\begin_layout Plain Layout
dense (Dense) (None, 400) 120000
\end_layout

\begin_layout Plain Layout
_________________________________________________________________
\end_layout

\begin_layout Plain Layout
batch_normalization (BatchNo (None, 400) 1600 __________________________________
_______________________________ dense_1 (Dense) (None, 200) 80000 ______________
___________________________________________________ batch_normalization_1
 (Batch (None, 200) 800 ________________________________________________________
_________ dense_2 (Dense) (None, 100) 20100 ____________________________________
_____________________________ dropout (Dropout) (None, 100) 0 __________________
_______________________________________________ dense_3 (Dense) (None, 50)
 5000 _________________________________________________________________
 batch_normalization_2 (Batch (None, 50) 200 ___________________________________
______________________________ dense_4 (Dense) (None, 2) 102 ===================
============================================== Total params: 227,802 Trainable
 params: 226,502 Non-trainable params: 1,300 ______________________________
\end_layout

\end_inset


\end_layout

\begin_layout Section
Diseño de sistema de adquisición
\end_layout

\begin_layout Standard
El sistema de aquisición de datos busca obtener de manera más fiable los
 datos de aceleración, posición y los SPM
…
